…
Loading cached processed dataset at /data/home/rvarm1/.cache/huggingface/datasets/red_caps/jellyfish/1.0.0/d0d70a901e22f5e3b9a7af1f96f31c6243589705a5ab782b9ac69fcf727d97be/cache-b47bf6120dd5de9c.arrow
Loading cached processed dataset at /data/home/rvarm1/.cache/huggingface/datasets/red_caps/jellyfish/1.0.0/d0d70a901e22f5e3b9a7af1f96f31c6243589705a5ab782b9ac69fcf727d97be/cache-d649afaec7f4d7a0.arrow
My fsdp model  FullyShardedDataParallel(
  (_fsdp_wrapped_module): FlattenParamsWrapper(
    (_fpw_module): FLAVAForPreTraining(
      (model): FLAVAModel(
        (image_encoder): ImageTransformer(
          (embeddings): ImageEmbeddings(
            (patch_embeddings): PatchEmbeddings(
              (projection): Conv2d(3, 1280, kernel_size=(16, 16), stride=(16, 16))
            )
            (dropout): Dropout(p=0.0, inplace=False)
          )
          (encoder): FLAVATransformerEncoder(
            (layer): ModuleList(
              (0): FullyShardedDataParallel(
                (_fsdp_wrapped_module): FlattenParamsWrapper(
                  (_fpw_module): FLAVATransformerLayer(
                    (attention): MultiHeadAttention(
                      (query): Linear(in_features=1280, out_features=1280, bias=True)
                      (key): Linear(in_features=1280, out_features=1280, bias=True)
                      (value): Linear(in_features=1280, out_features=1280, bias=True)
                      (output): Linear(in_features=1280, out_features=1280, bias=True)
                      (attn): SelfAttention()
                    )
                    (attention_dropout): Dropout(p=0.0, inplace=False)
                    (intermediate): Linear(in_features=1280, out_features=5120, bias=True)
                    (output): Linear(in_features=5120, out_features=1280, bias=True)
                    (ffn_dropout): Dropout(p=0.0, inplace=False)
                    (layernorm_before): Fp32LayerNorm((1280,), eps=1e-12, elementwise_affine=True)
                    (layernorm_after): Fp32LayerNorm((1280,), eps=1e-12, elementwise_affine=True)
                  )
                )
              )
              (1): FullyShardedDataParallel(
                (_fsdp_wrapped_module): FlattenParamsWrapper(
                  (_fpw_module): FLAVATransformerLayer(
                    (attention): MultiHeadAttention(
                      (query): Linear(in_features=1280, out_features=1280, bias=True)
                      (key): Linear(in_features=1280, out_features=1280, bias=True)
                      (value): Linear(in_features=1280, out_features=1280, bias=True)
                      (output): Linear(in_features=1280, out_features=1280, bias=True)
                      (attn): SelfAttention()
                    )
                    (attention_dropout): Dropout(p=0.0, inplace=False)
                    (intermediate): Linear(in_features=1280, out_features=5120, bias=True)
                    (output): Linear(in_features=5120, out_features=1280, bias=True)
                    (ffn_dropout): Dropout(p=0.0, inplace=False)
                    (layernorm_before): Fp32LayerNorm((1280,), eps=1e-12, elementwise_affine=True)
                    (layernorm_after): Fp32LayerNorm((1280,), eps=1e-12, elementwise_affine=True)
                  )
                )
              )
              (2): FullyShardedDataParallel(
                (_fsdp_wrapped_module): FlattenParamsWrapper(
                  (_fpw_module): FLAVATransformerLayer(
                    (attention): MultiHeadAttention(
                      (query): Linear(in_features=1280, out_features=1280, bias=True)
                      (key): Linear(in_features=1280, out_features=1280, bias=True)
                      (value): Linear(in_features=1280, out_features=1280, bias=True)
                      (output): Linear(in_features=1280, out_features=1280, bias=True)
                      (attn): SelfAttention()
                    )
                    (attention_dropout): Dropout(p=0.0, inplace=False)
                    (intermediate): Linear(in_features=1280, out_features=5120, bias=True)
                    (output): Linear(in_features=5120, out_features=1280, bias=True)
                    (ffn_dropout): Dropout(p=0.0, inplace=False)
                    (layernorm_before): Fp32LayerNorm((1280,), eps=1e-12, elementwise_affine=True)
                    (layernorm_after): Fp32LayerNorm((1280,), eps=1e-12, elementwise_affine=True)
                  )
                )
              )
              (3): FullyShardedDataParallel(
                (_fsdp_wrapped_module): FlattenParamsWrapper(
                  (_fpw_module): FLAVATransformerLayer(
                    (attention): MultiHeadAttention(
                      (query): Linear(in_features=1280, out_features=1280, bias=True)
                      (key): Linear(in_features=1280, out_features=1280, bias=True)
                      (value): Linear(in_features=1280, out_features=1280, bias=True)
                      (output): Linear(in_features=1280, out_features=1280, bias=True)
                      (attn): SelfAttention()
                    )
                    (attention_dropout): Dropout(p=0.0, inplace=False)
                    (intermediate): Linear(in_features=1280, out_features=5120, bias=True)
                    (output): Linear(in_features=5120, out_features=1280, bias=True)
                    (ffn_dropout): Dropout(p=0.0, inplace=False)
                    (layernorm_before): Fp32LayerNorm((1280,), eps=1e-12, elementwise_affine=True)
                    (layernorm_after): Fp32LayerNorm((1280,), eps=1e-12, elementwise_affine=True)
                  )
                )
              )
              (4): FullyShardedDataParallel(
                (_fsdp_wrapped_module): FlattenParamsWrapper(
                  (_fpw_module): FLAVATransformerLayer(
                    (attention): MultiHeadAttention(
                      (query): Linear(in_features=1280, out_features=1280, bias=True)
                      (key): Linear(in_features=1280, out_features=1280, bias=True)
                      (value): Linear(in_features=1280, out_features=1280, bias=True)
                      (output): Linear(in_features=1280, out_features=1280, bias=True)
                      (attn): SelfAttention()
                    )
                    (attention_dropout): Dropout(p=0.0, inplace=False)
                    (intermediate): Linear(in_features=1280, out_features=5120, bias=True)
                    (output): Linear(in_features=5120, out_features=1280, bias=True)
                    (ffn_dropout): Dropout(p=0.0, inplace=False)
                    (layernorm_before): Fp32LayerNorm((1280,), eps=1e-12, elementwise_affine=True)
                    (layernorm_after): Fp32LayerNorm((1280,), eps=1e-12, elementwise_affine=True)
                  )
                )
              )
              (5): FullyShardedDataParallel(
                (_fsdp_wrapped_module): FlattenParamsWrapper(
                  (_fpw_module): FLAVATransformerLayer(
                    (attention): MultiHeadAttention(
                      (query): Linear(in_features=1280, out_features=1280, bias=True)
                      (key): Linear(in_features=1280, out_features=1280, bias=True)
                      (value): Linear(in_features=1280, out_features=1280, bias=True)
                      (output): Linear(in_features=1280, out_features=1280, bias=True)
                      (attn): SelfAttention()
                    )
                    (attention_dropout): Dropout(p=0.0, inplace=False)
                    (intermediate): Linear(in_features=1280, out_features=5120, bias=True)
                    (output): Linear(in_features=5120, out_features=1280, bias=True)
                    (ffn_dropout): Dropout(p=0.0, inplace=False)
                    (layernorm_before): Fp32LayerNorm((1280,), eps=1e-12, elementwise_affine=True)
                    (layernorm_after): Fp32LayerNorm((1280,), eps=1e-12, elementwise_affine=True)
                  )
                )
              )
              (6): FullyShardedDataParallel(
                (_fsdp_wrapped_module): FlattenParamsWrapper(
                  (_fpw_module): FLAVATransformerLayer(
                    (attention): MultiHeadAttention(
                      (query): Linear(in_features=1280, out_features=1280, bias=True)
                      (key): Linear(in_features=1280, out_features=1280, bias=True)
                      (value): Linear(in_features=1280, out_features=1280, bias=True)
                      (output): Linear(in_features=1280, out_features=1280, bias=True)
                      (attn): SelfAttention()
                    )
                    (attention_dropout): Dropout(p=0.0, inplace=False)
                    (intermediate): Linear(in_features=1280, out_features=5120, bias=True)
                    (output): Linear(in_features=5120, out_features=1280, bias=True)
                    (ffn_dropout): Dropout(p=0.0, inplace=False)
                    (layernorm_before): Fp32LayerNorm((1280,), eps=1e-12, elementwise_affine=True)
                    (layernorm_after): Fp32LayerNorm((1280,), eps=1e-12, elementwise_affine=True)
                  )
                )
              )
              (7): FullyShardedDataParallel(
                (_fsdp_wrapped_module): FlattenParamsWrapper(
                  (_fpw_module): FLAVATransformerLayer(
                    (attention): MultiHeadAttention(
                      (query): Linear(in_features=1280, out_features=1280, bias=True)
                      (key): Linear(in_features=1280, out_features=1280, bias=True)
                      (value): Linear(in_features=1280, out_features=1280, bias=True)
                      (output): Linear(in_features=1280, out_features=1280, bias=True)
                      (attn): SelfAttention()
                    )
                    (attention_dropout): Dropout(p=0.0, inplace=False)
                    (intermediate): Linear(in_features=1280, out_features=5120, bias=True)
                    (output): Linear(in_features=5120, out_features=1280, bias=True)
                    (ffn_dropout): Dropout(p=0.0, inplace=False)
                    (layernorm_before): Fp32LayerNorm((1280,), eps=1e-12, elementwise_affine=True)
                    (layernorm_after): Fp32LayerNorm((1280,), eps=1e-12, elementwise_affine=True)
                  )
                )
              )
              (8): FullyShardedDataParallel(
                (_fsdp_wrapped_module): FlattenParamsWrapper(
                  (_fpw_module): FLAVATransformerLayer(
                    (attention): MultiHeadAttention(
                      (query): Linear(in_features=1280, out_features=1280, bias=True)
                      (key): Linear(in_features=1280, out_features=1280, bias=True)
                      (value): Linear(in_features=1280, out_features=1280, bias=True)
                      (output): Linear(in_features=1280, out_features=1280, bias=True)
                      (attn): SelfAttention()
                    )
                    (attention_dropout): Dropout(p=0.0, inplace=False)
                    (intermediate): Linear(in_features=1280, out_features=5120, bias=True)
                    (output): Linear(in_features=5120, out_features=1280, bias=True)
                    (ffn_dropout): Dropout(p=0.0, inplace=False)
                    (layernorm_before): Fp32LayerNorm((1280,), eps=1e-12, elementwise_affine=True)
                    (layernorm_after): Fp32LayerNorm((1280,), eps=1e-12, elementwise_affine=True)
                  )
                )
              )
              (9): FullyShardedDataParallel(
                (_fsdp_wrapped_module): FlattenParamsWrapper(
                  (_fpw_module): FLAVATransformerLayer(
                    (attention): MultiHeadAttention(
                      (query): Linear(in_features=1280, out_features=1280, bias=True)
                      (key): Linear(in_features=1280, out_features=1280, bias=True)
                      (value): Linear(in_features=1280, out_features=1280, bias=True)
                      (output): Linear(in_features=1280, out_features=1280, bias=True)
                      (attn): SelfAttention()
                    )
                    (attention_dropout): Dropout(p=0.0, inplace=False)
                    (intermediate): Linear(in_features=1280, out_features=5120, bias=True)
                    (output): Linear(in_features=5120, out_features=1280, bias=True)
                    (ffn_dropout): Dropout(p=0.0, inplace=False)
                    (layernorm_before): Fp32LayerNorm((1280,), eps=1e-12, elementwise_affine=True)
                    (layernorm_after): Fp32LayerNorm((1280,), eps=1e-12, elementwise_affine=True)
                  )
                )
              )
              (10): FullyShardedDataParallel(
                (_fsdp_wrapped_module): FlattenParamsWrapper(
                  (_fpw_module): FLAVATransformerLayer(
                    (attention): MultiHeadAttention(
                      (query): Linear(in_features=1280, out_features=1280, bias=True)
                      (key): Linear(in_features=1280, out_features=1280, bias=True)
                      (value): Linear(in_features=1280, out_features=1280, bias=True)
                      (output): Linear(in_features=1280, out_features=1280, bias=True)
                      (attn): SelfAttention()
                    )
                    (attention_dropout): Dropout(p=0.0, inplace=False)
                    (intermediate): Linear(in_features=1280, out_features=5120, bias=True)
                    (output): Linear(in_features=5120, out_features=1280, bias=True)
                    (ffn_dropout): Dropout(p=0.0, inplace=False)
                    (layernorm_before): Fp32LayerNorm((1280,), eps=1e-12, elementwise_affine=True)
                    (layernorm_after): Fp32LayerNorm((1280,), eps=1e-12, elementwise_affine=True)
                  )
                )
              )
              (11): FullyShardedDataParallel(
                (_fsdp_wrapped_module): FlattenParamsWrapper(
                  (_fpw_module): FLAVATransformerLayer(
                    (attention): MultiHeadAttention(
                      (query): Linear(in_features=1280, out_features=1280, bias=True)
                      (key): Linear(in_features=1280, out_features=1280, bias=True)
                      (value): Linear(in_features=1280, out_features=1280, bias=True)
                      (output): Linear(in_features=1280, out_features=1280, bias=True)
                      (attn): SelfAttention()
                    )
                    (attention_dropout): Dropout(p=0.0, inplace=False)
                    (intermediate): Linear(in_features=1280, out_features=5120, bias=True)
                    (output): Linear(in_features=5120, out_features=1280, bias=True)
                    (ffn_dropout): Dropout(p=0.0, inplace=False)
                    (layernorm_before): Fp32LayerNorm((1280,), eps=1e-12, elementwise_affine=True)
                    (layernorm_after): Fp32LayerNorm((1280,), eps=1e-12, elementwise_affine=True)
                  )
                )
              )
              (12): FullyShardedDataParallel(
                (_fsdp_wrapped_module): FlattenParamsWrapper(
                  (_fpw_module): FLAVATransformerLayer(
                    (attention): MultiHeadAttention(
                      (query): Linear(in_features=1280, out_features=1280, bias=True)
                      (key): Linear(in_features=1280, out_features=1280, bias=True)
                      (value): Linear(in_features=1280, out_features=1280, bias=True)
                      (output): Linear(in_features=1280, out_features=1280, bias=True)
                      (attn): SelfAttention()
                    )
                    (attention_dropout): Dropout(p=0.0, inplace=False)
                    (intermediate): Linear(in_features=1280, out_features=5120, bias=True)
                    (output): Linear(in_features=5120, out_features=1280, bias=True)
                    (ffn_dropout): Dropout(p=0.0, inplace=False)
                    (layernorm_before): Fp32LayerNorm((1280,), eps=1e-12, elementwise_affine=True)
                    (layernorm_after): Fp32LayerNorm((1280,), eps=1e-12, elementwise_affine=True)
                  )
                )
              )
              (13): FullyShardedDataParallel(
                (_fsdp_wrapped_module): FlattenParamsWrapper(
                  (_fpw_module): FLAVATransformerLayer(
                    (attention): MultiHeadAttention(
                      (query): Linear(in_features=1280, out_features=1280, bias=True)
                      (key): Linear(in_features=1280, out_features=1280, bias=True)
                      (value): Linear(in_features=1280, out_features=1280, bias=True)
                      (output): Linear(in_features=1280, out_features=1280, bias=True)
                      (attn): SelfAttention()
                    )
                    (attention_dropout): Dropout(p=0.0, inplace=False)
                    (intermediate): Linear(in_features=1280, out_features=5120, bias=True)
                    (output): Linear(in_features=5120, out_features=1280, bias=True)
                    (ffn_dropout): Dropout(p=0.0, inplace=False)
                    (layernorm_before): Fp32LayerNorm((1280,), eps=1e-12, elementwise_affine=True)
                    (layernorm_after): Fp32LayerNorm((1280,), eps=1e-12, elementwise_affine=True)
                  )
                )
              )
              (14): FullyShardedDataParallel(
                (_fsdp_wrapped_module): FlattenParamsWrapper(
                  (_fpw_module): FLAVATransformerLayer(
                    (attention): MultiHeadAttention(
                      (query): Linear(in_features=1280, out_features=1280, bias=True)
                      (key): Linear(in_features=1280, out_features=1280, bias=True)
                      (value): Linear(in_features=1280, out_features=1280, bias=True)
                      (output): Linear(in_features=1280, out_features=1280, bias=True)
                      (attn): SelfAttention()
                    )
                    (attention_dropout): Dropout(p=0.0, inplace=False)
                    (intermediate): Linear(in_features=1280, out_features=5120, bias=True)
                    (output): Linear(in_features=5120, out_features=1280, bias=True)
                    (ffn_dropout): Dropout(p=0.0, inplace=False)
                    (layernorm_before): Fp32LayerNorm((1280,), eps=1e-12, elementwise_affine=True)
                    (layernorm_after): Fp32LayerNorm((1280,), eps=1e-12, elementwise_affine=True)
                  )
                )
              )
              (15): FullyShardedDataParallel(
                (_fsdp_wrapped_module): FlattenParamsWrapper(
                  (_fpw_module): FLAVATransformerLayer(
                    (attention): MultiHeadAttention(
                      (query): Linear(in_features=1280, out_features=1280, bias=True)
                      (key): Linear(in_features=1280, out_features=1280, bias=True)
                      (value): Linear(in_features=1280, out_features=1280, bias=True)
                      (output): Linear(in_features=1280, out_features=1280, bias=True)
                      (attn): SelfAttention()
                    )
                    (attention_dropout): Dropout(p=0.0, inplace=False)
                    (intermediate): Linear(in_features=1280, out_features=5120, bias=True)
                    (output): Linear(in_features=5120, out_features=1280, bias=True)
                    (ffn_dropout): Dropout(p=0.0, inplace=False)
                    (layernorm_before): Fp32LayerNorm((1280,), eps=1e-12, elementwise_affine=True)
                    (layernorm_after): Fp32LayerNorm((1280,), eps=1e-12, elementwise_affine=True)
                  )
                )
              )
              (16): FullyShardedDataParallel(
                (_fsdp_wrapped_module): FlattenParamsWrapper(
                  (_fpw_module): FLAVATransformerLayer(
                    (attention): MultiHeadAttention(
                      (query): Linear(in_features=1280, out_features=1280, bias=True)
                      (key): Linear(in_features=1280, out_features=1280, bias=True)
                      (value): Linear(in_features=1280, out_features=1280, bias=True)
                      (output): Linear(in_features=1280, out_features=1280, bias=True)
                      (attn): SelfAttention()
                    )
                    (attention_dropout): Dropout(p=0.0, inplace=False)
                    (intermediate): Linear(in_features=1280, out_features=5120, bias=True)
                    (output): Linear(in_features=5120, out_features=1280, bias=True)
                    (ffn_dropout): Dropout(p=0.0, inplace=False)
                    (layernorm_before): Fp32LayerNorm((1280,), eps=1e-12, elementwise_affine=True)
                    (layernorm_after): Fp32LayerNorm((1280,), eps=1e-12, elementwise_affine=True)
                  )
                )
              )
              (17): FullyShardedDataParallel(
                (_fsdp_wrapped_module): FlattenParamsWrapper(
                  (_fpw_module): FLAVATransformerLayer(
                    (attention): MultiHeadAttention(
                      (query): Linear(in_features=1280, out_features=1280, bias=True)
                      (key): Linear(in_features=1280, out_features=1280, bias=True)
                      (value): Linear(in_features=1280, out_features=1280, bias=True)
                      (output): Linear(in_features=1280, out_features=1280, bias=True)
                      (attn): SelfAttention()
                    )
                    (attention_dropout): Dropout(p=0.0, inplace=False)
                    (intermediate): Linear(in_features=1280, out_features=5120, bias=True)
                    (output): Linear(in_features=5120, out_features=1280, bias=True)
                    (ffn_dropout): Dropout(p=0.0, inplace=False)
                    (layernorm_before): Fp32LayerNorm((1280,), eps=1e-12, elementwise_affine=True)
                    (layernorm_after): Fp32LayerNorm((1280,), eps=1e-12, elementwise_affine=True)
                  )
                )
              )
              (18): FullyShardedDataParallel(
                (_fsdp_wrapped_module): FlattenParamsWrapper(
                  (_fpw_module): FLAVATransformerLayer(
                    (attention): MultiHeadAttention(
                      (query): Linear(in_features=1280, out_features=1280, bias=True)
                      (key): Linear(in_features=1280, out_features=1280, bias=True)
                      (value): Linear(in_features=1280, out_features=1280, bias=True)
                      (output): Linear(in_features=1280, out_features=1280, bias=True)
                      (attn): SelfAttention()
                    )
                    (attention_dropout): Dropout(p=0.0, inplace=False)
                    (intermediate): Linear(in_features=1280, out_features=5120, bias=True)
                    (output): Linear(in_features=5120, out_features=1280, bias=True)
                    (ffn_dropout): Dropout(p=0.0, inplace=False)
                    (layernorm_before): Fp32LayerNorm((1280,), eps=1e-12, elementwise_affine=True)
                    (layernorm_after): Fp32LayerNorm((1280,), eps=1e-12, elementwise_affine=True)
                  )
                )
              )
              (19): FullyShardedDataParallel(
                (_fsdp_wrapped_module): FlattenParamsWrapper(
                  (_fpw_module): FLAVATransformerLayer(
                    (attention): MultiHeadAttention(
                      (query): Linear(in_features=1280, out_features=1280, bias=True)
                      (key): Linear(in_features=1280, out_features=1280, bias=True)
                      (value): Linear(in_features=1280, out_features=1280, bias=True)
                      (output): Linear(in_features=1280, out_features=1280, bias=True)
                      (attn): SelfAttention()
                    )
                    (attention_dropout): Dropout(p=0.0, inplace=False)
                    (intermediate): Linear(in_features=1280, out_features=5120, bias=True)
                    (output): Linear(in_features=5120, out_features=1280, bias=True)
                    (ffn_dropout): Dropout(p=0.0, inplace=False)
                    (layernorm_before): Fp32LayerNorm((1280,), eps=1e-12, elementwise_affine=True)
                    (layernorm_after): Fp32LayerNorm((1280,), eps=1e-12, elementwise_affine=True)
                  )
                )
              )
              (20): FullyShardedDataParallel(
                (_fsdp_wrapped_module): FlattenParamsWrapper(
                  (_fpw_module): FLAVATransformerLayer(
                    (attention): MultiHeadAttention(
                      (query): Linear(in_features=1280, out_features=1280, bias=True)
                      (key): Linear(in_features=1280, out_features=1280, bias=True)
                      (value): Linear(in_features=1280, out_features=1280, bias=True)
                      (output): Linear(in_features=1280, out_features=1280, bias=True)
                      (attn): SelfAttention()
                    )
                    (attention_dropout): Dropout(p=0.0, inplace=False)
                    (intermediate): Linear(in_features=1280, out_features=5120, bias=True)
                    (output): Linear(in_features=5120, out_features=1280, bias=True)
                    (ffn_dropout): Dropout(p=0.0, inplace=False)
                    (layernorm_before): Fp32LayerNorm((1280,), eps=1e-12, elementwise_affine=True)
                    (layernorm_after): Fp32LayerNorm((1280,), eps=1e-12, elementwise_affine=True)
                  )
                )
              )
              (21): FullyShardedDataParallel(
                (_fsdp_wrapped_module): FlattenParamsWrapper(
                  (_fpw_module): FLAVATransformerLayer(
                    (attention): MultiHeadAttention(
                      (query): Linear(in_features=1280, out_features=1280, bias=True)
                      (key): Linear(in_features=1280, out_features=1280, bias=True)
                      (value): Linear(in_features=1280, out_features=1280, bias=True)
                      (output): Linear(in_features=1280, out_features=1280, bias=True)
                      (attn): SelfAttention()
                    )
                    (attention_dropout): Dropout(p=0.0, inplace=False)
                    (intermediate): Linear(in_features=1280, out_features=5120, bias=True)
                    (output): Linear(in_features=5120, out_features=1280, bias=True)
                    (ffn_dropout): Dropout(p=0.0, inplace=False)
                    (layernorm_before): Fp32LayerNorm((1280,), eps=1e-12, elementwise_affine=True)
                    (layernorm_after): Fp32LayerNorm((1280,), eps=1e-12, elementwise_affine=True)
                  )
                )
              )
              (22): FullyShardedDataParallel(
                (_fsdp_wrapped_module): FlattenParamsWrapper(
                  (_fpw_module): FLAVATransformerLayer(
                    (attention): MultiHeadAttention(
                      (query): Linear(in_features=1280, out_features=1280, bias=True)
                      (key): Linear(in_features=1280, out_features=1280, bias=True)
                      (value): Linear(in_features=1280, out_features=1280, bias=True)
                      (output): Linear(in_features=1280, out_features=1280, bias=True)
                      (attn): SelfAttention()
                    )
                    (attention_dropout): Dropout(p=0.0, inplace=False)
                    (intermediate): Linear(in_features=1280, out_features=5120, bias=True)
                    (output): Linear(in_features=5120, out_features=1280, bias=True)
                    (ffn_dropout): Dropout(p=0.0, inplace=False)
                    (layernorm_before): Fp32LayerNorm((1280,), eps=1e-12, elementwise_affine=True)
                    (layernorm_after): Fp32LayerNorm((1280,), eps=1e-12, elementwise_affine=True)
                  )
                )
              )
              (23): FullyShardedDataParallel(
                (_fsdp_wrapped_module): FlattenParamsWrapper(
                  (_fpw_module): FLAVATransformerLayer(
                    (attention): MultiHeadAttention(
                      (query): Linear(in_features=1280, out_features=1280, bias=True)
                      (key): Linear(in_features=1280, out_features=1280, bias=True)
                      (value): Linear(in_features=1280, out_features=1280, bias=True)
                      (output): Linear(in_features=1280, out_features=1280, bias=True)
                      (attn): SelfAttention()
                    )
                    (attention_dropout): Dropout(p=0.0, inplace=False)
                    (intermediate): Linear(in_features=1280, out_features=5120, bias=True)
                    (output): Linear(in_features=5120, out_features=1280, bias=True)
                    (ffn_dropout): Dropout(p=0.0, inplace=False)
                    (layernorm_before): Fp32LayerNorm((1280,), eps=1e-12, elementwise_affine=True)
                    (layernorm_after): Fp32LayerNorm((1280,), eps=1e-12, elementwise_affine=True)
                  )
                )
              )
              (24): FullyShardedDataParallel(
                (_fsdp_wrapped_module): FlattenParamsWrapper(
                  (_fpw_module): FLAVATransformerLayer(
                    (attention): MultiHeadAttention(
                      (query): Linear(in_features=1280, out_features=1280, bias=True)
                      (key): Linear(in_features=1280, out_features=1280, bias=True)
                      (value): Linear(in_features=1280, out_features=1280, bias=True)
                      (output): Linear(in_features=1280, out_features=1280, bias=True)
                      (attn): SelfAttention()
                    )
                    (attention_dropout): Dropout(p=0.0, inplace=False)
                    (intermediate): Linear(in_features=1280, out_features=5120, bias=True)
                    (output): Linear(in_features=5120, out_features=1280, bias=True)
                    (ffn_dropout): Dropout(p=0.0, inplace=False)
                    (layernorm_before): Fp32LayerNorm((1280,), eps=1e-12, elementwise_affine=True)
                    (layernorm_after): Fp32LayerNorm((1280,), eps=1e-12, elementwise_affine=True)
                  )
                )
              )
              (25): FullyShardedDataParallel(
                (_fsdp_wrapped_module): FlattenParamsWrapper(
                  (_fpw_module): FLAVATransformerLayer(
                    (attention): MultiHeadAttention(
                      (query): Linear(in_features=1280, out_features=1280, bias=True)
                      (key): Linear(in_features=1280, out_features=1280, bias=True)
                      (value): Linear(in_features=1280, out_features=1280, bias=True)
                      (output): Linear(in_features=1280, out_features=1280, bias=True)
                      (attn): SelfAttention()
                    )
                    (attention_dropout): Dropout(p=0.0, inplace=False)
                    (intermediate): Linear(in_features=1280, out_features=5120, bias=True)
                    (output): Linear(in_features=5120, out_features=1280, bias=True)
                    (ffn_dropout): Dropout(p=0.0, inplace=False)
                    (layernorm_before): Fp32LayerNorm((1280,), eps=1e-12, elementwise_affine=True)
                    (layernorm_after): Fp32LayerNorm((1280,), eps=1e-12, elementwise_affine=True)
                  )
                )
              )
              (26): FullyShardedDataParallel(
                (_fsdp_wrapped_module): FlattenParamsWrapper(
                  (_fpw_module): FLAVATransformerLayer(
                    (attention): MultiHeadAttention(
                      (query): Linear(in_features=1280, out_features=1280, bias=True)
                      (key): Linear(in_features=1280, out_features=1280, bias=True)
                      (value): Linear(in_features=1280, out_features=1280, bias=True)
                      (output): Linear(in_features=1280, out_features=1280, bias=True)
                      (attn): SelfAttention()
                    )
                    (attention_dropout): Dropout(p=0.0, inplace=False)
                    (intermediate): Linear(in_features=1280, out_features=5120, bias=True)
                    (output): Linear(in_features=5120, out_features=1280, bias=True)
                    (ffn_dropout): Dropout(p=0.0, inplace=False)
                    (layernorm_before): Fp32LayerNorm((1280,), eps=1e-12, elementwise_affine=True)
                    (layernorm_after): Fp32LayerNorm((1280,), eps=1e-12, elementwise_affine=True)
                  )
                )
              )
              (27): FullyShardedDataParallel(
                (_fsdp_wrapped_module): FlattenParamsWrapper(
                  (_fpw_module): FLAVATransformerLayer(
                    (attention): MultiHeadAttention(
                      (query): Linear(in_features=1280, out_features=1280, bias=True)
                      (key): Linear(in_features=1280, out_features=1280, bias=True)
                      (value): Linear(in_features=1280, out_features=1280, bias=True)
                      (output): Linear(in_features=1280, out_features=1280, bias=True)
                      (attn): SelfAttention()
                    )
                    (attention_dropout): Dropout(p=0.0, inplace=False)
                    (intermediate): Linear(in_features=1280, out_features=5120, bias=True)
                    (output): Linear(in_features=5120, out_features=1280, bias=True)
                    (ffn_dropout): Dropout(p=0.0, inplace=False)
                    (layernorm_before): Fp32LayerNorm((1280,), eps=1e-12, elementwise_affine=True)
                    (layernorm_after): Fp32LayerNorm((1280,), eps=1e-12, elementwise_affine=True)
                  )
                )
              )
              (28): FullyShardedDataParallel(
                (_fsdp_wrapped_module): FlattenParamsWrapper(
                  (_fpw_module): FLAVATransformerLayer(
                    (attention): MultiHeadAttention(
                      (query): Linear(in_features=1280, out_features=1280, bias=True)
                      (key): Linear(in_features=1280, out_features=1280, bias=True)
                      (value): Linear(in_features=1280, out_features=1280, bias=True)
                      (output): Linear(in_features=1280, out_features=1280, bias=True)
                      (attn): SelfAttention()
                    )
                    (attention_dropout): Dropout(p=0.0, inplace=False)
                    (intermediate): Linear(in_features=1280, out_features=5120, bias=True)
                    (output): Linear(in_features=5120, out_features=1280, bias=True)
                    (ffn_dropout): Dropout(p=0.0, inplace=False)
                    (layernorm_before): Fp32LayerNorm((1280,), eps=1e-12, elementwise_affine=True)
                    (layernorm_after): Fp32LayerNorm((1280,), eps=1e-12, elementwise_affine=True)
                  )
                )
              )
              (29): FullyShardedDataParallel(
                (_fsdp_wrapped_module): FlattenParamsWrapper(
                  (_fpw_module): FLAVATransformerLayer(
                    (attention): MultiHeadAttention(
                      (query): Linear(in_features=1280, out_features=1280, bias=True)
                      (key): Linear(in_features=1280, out_features=1280, bias=True)
                      (value): Linear(in_features=1280, out_features=1280, bias=True)
                      (output): Linear(in_features=1280, out_features=1280, bias=True)
                      (attn): SelfAttention()
                    )
                    (attention_dropout): Dropout(p=0.0, inplace=False)
                    (intermediate): Linear(in_features=1280, out_features=5120, bias=True)
                    (output): Linear(in_features=5120, out_features=1280, bias=True)
                    (ffn_dropout): Dropout(p=0.0, inplace=False)
                    (layernorm_before): Fp32LayerNorm((1280,), eps=1e-12, elementwise_affine=True)
                    (layernorm_after): Fp32LayerNorm((1280,), eps=1e-12, elementwise_affine=True)
                  )
                )
              )
              (30): FullyShardedDataParallel(
                (_fsdp_wrapped_module): FlattenParamsWrapper(
                  (_fpw_module): FLAVATransformerLayer(
                    (attention): MultiHeadAttention(
                      (query): Linear(in_features=1280, out_features=1280, bias=True)
                      (key): Linear(in_features=1280, out_features=1280, bias=True)
                      (value): Linear(in_features=1280, out_features=1280, bias=True)
                      (output): Linear(in_features=1280, out_features=1280, bias=True)
                      (attn): SelfAttention()
                    )
                    (attention_dropout): Dropout(p=0.0, inplace=False)
                    (intermediate): Linear(in_features=1280, out_features=5120, bias=True)
                    (output): Linear(in_features=5120, out_features=1280, bias=True)
                    (ffn_dropout): Dropout(p=0.0, inplace=False)
                    (layernorm_before): Fp32LayerNorm((1280,), eps=1e-12, elementwise_affine=True)
                    (layernorm_after): Fp32LayerNorm((1280,), eps=1e-12, elementwise_affine=True)
                  )
                )
              )
              (31): FullyShardedDataParallel(
                (_fsdp_wrapped_module): FlattenParamsWrapper(
                  (_fpw_module): FLAVATransformerLayer(
                    (attention): MultiHeadAttention(
                      (query): Linear(in_features=1280, out_features=1280, bias=True)
                      (key): Linear(in_features=1280, out_features=1280, bias=True)
                      (value): Linear(in_features=1280, out_features=1280, bias=True)
                      (output): Linear(in_features=1280, out_features=1280, bias=True)
                      (attn): SelfAttention()
                    )
                    (attention_dropout): Dropout(p=0.0, inplace=False)
                    (intermediate): Linear(in_features=1280, out_features=5120, bias=True)
                    (output): Linear(in_features=5120, out_features=1280, bias=True)
                    (ffn_dropout): Dropout(p=0.0, inplace=False)
                    (layernorm_before): Fp32LayerNorm((1280,), eps=1e-12, elementwise_affine=True)
                    (layernorm_after): Fp32LayerNorm((1280,), eps=1e-12, elementwise_affine=True)
                  )
                )
              )
            )
          )
          (layernorm): Fp32LayerNorm((1280,), eps=1e-12, elementwise_affine=True)
          (pooler): Pooler(
            (dense): Linear(in_features=1280, out_features=1280, bias=True)
            (activation): Tanh()
          )
        )
        (text_encoder): TextTransformer(
          (embeddings): TextEmbeddings(
            (word_embeddings): Embedding(30522, 1280, padding_idx=0)
            (position_embeddings): Embedding(512, 1280)
            (token_type_embeddings): Embedding(2, 1280)
            (LayerNorm): LayerNorm((1280,), eps=1e-12, elementwise_affine=True)
            (dropout): Dropout(p=0.0, inplace=False)
          )
          (encoder): FLAVATransformerEncoder(
            (layer): ModuleList(
              (0): FullyShardedDataParallel(
                (_fsdp_wrapped_module): FlattenParamsWrapper(
                  (_fpw_module): FLAVATransformerLayer(
                    (attention): MultiHeadAttention(
                      (query): Linear(in_features=1280, out_features=1280, bias=True)
                      (key): Linear(in_features=1280, out_features=1280, bias=True)
                      (value): Linear(in_features=1280, out_features=1280, bias=True)
                      (output): Linear(in_features=1280, out_features=1280, bias=True)
                      (attn): SelfAttention()
                    )
                    (attention_dropout): Dropout(p=0.0, inplace=False)
                    (intermediate): Linear(in_features=1280, out_features=5120, bias=True)
                    (output): Linear(in_features=5120, out_features=1280, bias=True)
                    (ffn_dropout): Dropout(p=0.0, inplace=False)
                    (layernorm_before): Fp32LayerNorm((1280,), eps=1e-12, elementwise_affine=True)
                    (layernorm_after): Fp32LayerNorm((1280,), eps=1e-12, elementwise_affine=True)
                  )
                )
              )
              (1): FullyShardedDataParallel(
                (_fsdp_wrapped_module): FlattenParamsWrapper(
                  (_fpw_module): FLAVATransformerLayer(
                    (attention): MultiHeadAttention(
                      (query): Linear(in_features=1280, out_features=1280, bias=True)
                      (key): Linear(in_features=1280, out_features=1280, bias=True)
                      (value): Linear(in_features=1280, out_features=1280, bias=True)
                      (output): Linear(in_features=1280, out_features=1280, bias=True)
                      (attn): SelfAttention()
                    )
                    (attention_dropout): Dropout(p=0.0, inplace=False)
                    (intermediate): Linear(in_features=1280, out_features=5120, bias=True)
                    (output): Linear(in_features=5120, out_features=1280, bias=True)
                    (ffn_dropout): Dropout(p=0.0, inplace=False)
                    (layernorm_before): Fp32LayerNorm((1280,), eps=1e-12, elementwise_affine=True)
                    (layernorm_after): Fp32LayerNorm((1280,), eps=1e-12, elementwise_affine=True)
                  )
                )
              )
              (2): FullyShardedDataParallel(
                (_fsdp_wrapped_module): FlattenParamsWrapper(
                  (_fpw_module): FLAVATransformerLayer(
                    (attention): MultiHeadAttention(
                      (query): Linear(in_features=1280, out_features=1280, bias=True)
                      (key): Linear(in_features=1280, out_features=1280, bias=True)
                      (value): Linear(in_features=1280, out_features=1280, bias=True)
                      (output): Linear(in_features=1280, out_features=1280, bias=True)
                      (attn): SelfAttention()
                    )
                    (attention_dropout): Dropout(p=0.0, inplace=False)
                    (intermediate): Linear(in_features=1280, out_features=5120, bias=True)
                    (output): Linear(in_features=5120, out_features=1280, bias=True)
                    (ffn_dropout): Dropout(p=0.0, inplace=False)
                    (layernorm_before): Fp32LayerNorm((1280,), eps=1e-12, elementwise_affine=True)
                    (layernorm_after): Fp32LayerNorm((1280,), eps=1e-12, elementwise_affine=True)
                  )
                )
              )
              (3): FullyShardedDataParallel(
                (_fsdp_wrapped_module): FlattenParamsWrapper(
                  (_fpw_module): FLAVATransformerLayer(
                    (attention): MultiHeadAttention(
                      (query): Linear(in_features=1280, out_features=1280, bias=True)
                      (key): Linear(in_features=1280, out_features=1280, bias=True)
                      (value): Linear(in_features=1280, out_features=1280, bias=True)
                      (output): Linear(in_features=1280, out_features=1280, bias=True)
                      (attn): SelfAttention()
                    )
                    (attention_dropout): Dropout(p=0.0, inplace=False)
                    (intermediate): Linear(in_features=1280, out_features=5120, bias=True)
                    (output): Linear(in_features=5120, out_features=1280, bias=True)
                    (ffn_dropout): Dropout(p=0.0, inplace=False)
                    (layernorm_before): Fp32LayerNorm((1280,), eps=1e-12, elementwise_affine=True)
                    (layernorm_after): Fp32LayerNorm((1280,), eps=1e-12, elementwise_affine=True)
                  )
                )
              )
              (4): FullyShardedDataParallel(
                (_fsdp_wrapped_module): FlattenParamsWrapper(
                  (_fpw_module): FLAVATransformerLayer(
                    (attention): MultiHeadAttention(
                      (query): Linear(in_features=1280, out_features=1280, bias=True)
                      (key): Linear(in_features=1280, out_features=1280, bias=True)
                      (value): Linear(in_features=1280, out_features=1280, bias=True)
                      (output): Linear(in_features=1280, out_features=1280, bias=True)
                      (attn): SelfAttention()
                    )
                    (attention_dropout): Dropout(p=0.0, inplace=False)
                    (intermediate): Linear(in_features=1280, out_features=5120, bias=True)
                    (output): Linear(in_features=5120, out_features=1280, bias=True)
                    (ffn_dropout): Dropout(p=0.0, inplace=False)
                    (layernorm_before): Fp32LayerNorm((1280,), eps=1e-12, elementwise_affine=True)
                    (layernorm_after): Fp32LayerNorm((1280,), eps=1e-12, elementwise_affine=True)
                  )
                )
              )
              (5): FullyShardedDataParallel(
                (_fsdp_wrapped_module): FlattenParamsWrapper(
                  (_fpw_module): FLAVATransformerLayer(
                    (attention): MultiHeadAttention(
                      (query): Linear(in_features=1280, out_features=1280, bias=True)
                      (key): Linear(in_features=1280, out_features=1280, bias=True)
                      (value): Linear(in_features=1280, out_features=1280, bias=True)
                      (output): Linear(in_features=1280, out_features=1280, bias=True)
                      (attn): SelfAttention()
                    )
                    (attention_dropout): Dropout(p=0.0, inplace=False)
                    (intermediate): Linear(in_features=1280, out_features=5120, bias=True)
                    (output): Linear(in_features=5120, out_features=1280, bias=True)
                    (ffn_dropout): Dropout(p=0.0, inplace=False)
                    (layernorm_before): Fp32LayerNorm((1280,), eps=1e-12, elementwise_affine=True)
                    (layernorm_after): Fp32LayerNorm((1280,), eps=1e-12, elementwise_affine=True)
                  )
                )
              )
              (6): FullyShardedDataParallel(
                (_fsdp_wrapped_module): FlattenParamsWrapper(
                  (_fpw_module): FLAVATransformerLayer(
                    (attention): MultiHeadAttention(
                      (query): Linear(in_features=1280, out_features=1280, bias=True)
                      (key): Linear(in_features=1280, out_features=1280, bias=True)
                      (value): Linear(in_features=1280, out_features=1280, bias=True)
                      (output): Linear(in_features=1280, out_features=1280, bias=True)
                      (attn): SelfAttention()
                    )
                    (attention_dropout): Dropout(p=0.0, inplace=False)
                    (intermediate): Linear(in_features=1280, out_features=5120, bias=True)
                    (output): Linear(in_features=5120, out_features=1280, bias=True)
                    (ffn_dropout): Dropout(p=0.0, inplace=False)
                    (layernorm_before): Fp32LayerNorm((1280,), eps=1e-12, elementwise_affine=True)
                    (layernorm_after): Fp32LayerNorm((1280,), eps=1e-12, elementwise_affine=True)
                  )
                )
              )
              (7): FullyShardedDataParallel(
                (_fsdp_wrapped_module): FlattenParamsWrapper(
                  (_fpw_module): FLAVATransformerLayer(
                    (attention): MultiHeadAttention(
                      (query): Linear(in_features=1280, out_features=1280, bias=True)
                      (key): Linear(in_features=1280, out_features=1280, bias=True)
                      (value): Linear(in_features=1280, out_features=1280, bias=True)
                      (output): Linear(in_features=1280, out_features=1280, bias=True)
                      (attn): SelfAttention()
                    )
                    (attention_dropout): Dropout(p=0.0, inplace=False)
                    (intermediate): Linear(in_features=1280, out_features=5120, bias=True)
                    (output): Linear(in_features=5120, out_features=1280, bias=True)
                    (ffn_dropout): Dropout(p=0.0, inplace=False)
                    (layernorm_before): Fp32LayerNorm((1280,), eps=1e-12, elementwise_affine=True)
                    (layernorm_after): Fp32LayerNorm((1280,), eps=1e-12, elementwise_affine=True)
                  )
                )
              )
              (8): FullyShardedDataParallel(
                (_fsdp_wrapped_module): FlattenParamsWrapper(
                  (_fpw_module): FLAVATransformerLayer(
                    (attention): MultiHeadAttention(
                      (query): Linear(in_features=1280, out_features=1280, bias=True)
                      (key): Linear(in_features=1280, out_features=1280, bias=True)
                      (value): Linear(in_features=1280, out_features=1280, bias=True)
                      (output): Linear(in_features=1280, out_features=1280, bias=True)
                      (attn): SelfAttention()
                    )
                    (attention_dropout): Dropout(p=0.0, inplace=False)
                    (intermediate): Linear(in_features=1280, out_features=5120, bias=True)
                    (output): Linear(in_features=5120, out_features=1280, bias=True)
                    (ffn_dropout): Dropout(p=0.0, inplace=False)
                    (layernorm_before): Fp32LayerNorm((1280,), eps=1e-12, elementwise_affine=True)
                    (layernorm_after): Fp32LayerNorm((1280,), eps=1e-12, elementwise_affine=True)
                  )
                )
              )
              (9): FullyShardedDataParallel(
                (_fsdp_wrapped_module): FlattenParamsWrapper(
                  (_fpw_module): FLAVATransformerLayer(
                    (attention): MultiHeadAttention(
                      (query): Linear(in_features=1280, out_features=1280, bias=True)
                      (key): Linear(in_features=1280, out_features=1280, bias=True)
                      (value): Linear(in_features=1280, out_features=1280, bias=True)
                      (output): Linear(in_features=1280, out_features=1280, bias=True)
                      (attn): SelfAttention()
                    )
                    (attention_dropout): Dropout(p=0.0, inplace=False)
                    (intermediate): Linear(in_features=1280, out_features=5120, bias=True)
                    (output): Linear(in_features=5120, out_features=1280, bias=True)
                    (ffn_dropout): Dropout(p=0.0, inplace=False)
                    (layernorm_before): Fp32LayerNorm((1280,), eps=1e-12, elementwise_affine=True)
                    (layernorm_after): Fp32LayerNorm((1280,), eps=1e-12, elementwise_affine=True)
                  )
                )
              )
              (10): FullyShardedDataParallel(
                (_fsdp_wrapped_module): FlattenParamsWrapper(
                  (_fpw_module): FLAVATransformerLayer(
                    (attention): MultiHeadAttention(
                      (query): Linear(in_features=1280, out_features=1280, bias=True)
                      (key): Linear(in_features=1280, out_features=1280, bias=True)
                      (value): Linear(in_features=1280, out_features=1280, bias=True)
                      (output): Linear(in_features=1280, out_features=1280, bias=True)
                      (attn): SelfAttention()
                    )
                    (attention_dropout): Dropout(p=0.0, inplace=False)
                    (intermediate): Linear(in_features=1280, out_features=5120, bias=True)
                    (output): Linear(in_features=5120, out_features=1280, bias=True)
                    (ffn_dropout): Dropout(p=0.0, inplace=False)
                    (layernorm_before): Fp32LayerNorm((1280,), eps=1e-12, elementwise_affine=True)
                    (layernorm_after): Fp32LayerNorm((1280,), eps=1e-12, elementwise_affine=True)
                  )
                )
              )
              (11): FullyShardedDataParallel(
                (_fsdp_wrapped_module): FlattenParamsWrapper(
                  (_fpw_module): FLAVATransformerLayer(
                    (attention): MultiHeadAttention(
                      (query): Linear(in_features=1280, out_features=1280, bias=True)
                      (key): Linear(in_features=1280, out_features=1280, bias=True)
                      (value): Linear(in_features=1280, out_features=1280, bias=True)
                      (output): Linear(in_features=1280, out_features=1280, bias=True)
                      (attn): SelfAttention()
                    )
                    (attention_dropout): Dropout(p=0.0, inplace=False)
                    (intermediate): Linear(in_features=1280, out_features=5120, bias=True)
                    (output): Linear(in_features=5120, out_features=1280, bias=True)
                    (ffn_dropout): Dropout(p=0.0, inplace=False)
                    (layernorm_before): Fp32LayerNorm((1280,), eps=1e-12, elementwise_affine=True)
                    (layernorm_after): Fp32LayerNorm((1280,), eps=1e-12, elementwise_affine=True)
                  )
                )
              )
              (12): FullyShardedDataParallel(
                (_fsdp_wrapped_module): FlattenParamsWrapper(
                  (_fpw_module): FLAVATransformerLayer(
                    (attention): MultiHeadAttention(
                      (query): Linear(in_features=1280, out_features=1280, bias=True)
                      (key): Linear(in_features=1280, out_features=1280, bias=True)
                      (value): Linear(in_features=1280, out_features=1280, bias=True)
                      (output): Linear(in_features=1280, out_features=1280, bias=True)
                      (attn): SelfAttention()
                    )
                    (attention_dropout): Dropout(p=0.0, inplace=False)
                    (intermediate): Linear(in_features=1280, out_features=5120, bias=True)
                    (output): Linear(in_features=5120, out_features=1280, bias=True)
                    (ffn_dropout): Dropout(p=0.0, inplace=False)
                    (layernorm_before): Fp32LayerNorm((1280,), eps=1e-12, elementwise_affine=True)
                    (layernorm_after): Fp32LayerNorm((1280,), eps=1e-12, elementwise_affine=True)
                  )
                )
              )
              (13): FullyShardedDataParallel(
                (_fsdp_wrapped_module): FlattenParamsWrapper(
                  (_fpw_module): FLAVATransformerLayer(
                    (attention): MultiHeadAttention(
                      (query): Linear(in_features=1280, out_features=1280, bias=True)
                      (key): Linear(in_features=1280, out_features=1280, bias=True)
                      (value): Linear(in_features=1280, out_features=1280, bias=True)
                      (output): Linear(in_features=1280, out_features=1280, bias=True)
                      (attn): SelfAttention()
                    )
                    (attention_dropout): Dropout(p=0.0, inplace=False)
                    (intermediate): Linear(in_features=1280, out_features=5120, bias=True)
                    (output): Linear(in_features=5120, out_features=1280, bias=True)
                    (ffn_dropout): Dropout(p=0.0, inplace=False)
                    (layernorm_before): Fp32LayerNorm((1280,), eps=1e-12, elementwise_affine=True)
                    (layernorm_after): Fp32LayerNorm((1280,), eps=1e-12, elementwise_affine=True)
                  )
                )
              )
              (14): FullyShardedDataParallel(
                (_fsdp_wrapped_module): FlattenParamsWrapper(
                  (_fpw_module): FLAVATransformerLayer(
                    (attention): MultiHeadAttention(
                      (query): Linear(in_features=1280, out_features=1280, bias=True)
                      (key): Linear(in_features=1280, out_features=1280, bias=True)
                      (value): Linear(in_features=1280, out_features=1280, bias=True)
                      (output): Linear(in_features=1280, out_features=1280, bias=True)
                      (attn): SelfAttention()
                    )
                    (attention_dropout): Dropout(p=0.0, inplace=False)
                    (intermediate): Linear(in_features=1280, out_features=5120, bias=True)
                    (output): Linear(in_features=5120, out_features=1280, bias=True)
                    (ffn_dropout): Dropout(p=0.0, inplace=False)
                    (layernorm_before): Fp32LayerNorm((1280,), eps=1e-12, elementwise_affine=True)
                    (layernorm_after): Fp32LayerNorm((1280,), eps=1e-12, elementwise_affine=True)
                  )
                )
              )
              (15): FullyShardedDataParallel(
                (_fsdp_wrapped_module): FlattenParamsWrapper(
                  (_fpw_module): FLAVATransformerLayer(
                    (attention): MultiHeadAttention(
                      (query): Linear(in_features=1280, out_features=1280, bias=True)
                      (key): Linear(in_features=1280, out_features=1280, bias=True)
                      (value): Linear(in_features=1280, out_features=1280, bias=True)
                      (output): Linear(in_features=1280, out_features=1280, bias=True)
                      (attn): SelfAttention()
                    )
                    (attention_dropout): Dropout(p=0.0, inplace=False)
                    (intermediate): Linear(in_features=1280, out_features=5120, bias=True)
                    (output): Linear(in_features=5120, out_features=1280, bias=True)
                    (ffn_dropout): Dropout(p=0.0, inplace=False)
                    (layernorm_before): Fp32LayerNorm((1280,), eps=1e-12, elementwise_affine=True)
                    (layernorm_after): Fp32LayerNorm((1280,), eps=1e-12, elementwise_affine=True)
                  )
                )
              )
              (16): FullyShardedDataParallel(
                (_fsdp_wrapped_module): FlattenParamsWrapper(
                  (_fpw_module): FLAVATransformerLayer(
                    (attention): MultiHeadAttention(
                      (query): Linear(in_features=1280, out_features=1280, bias=True)
                      (key): Linear(in_features=1280, out_features=1280, bias=True)
                      (value): Linear(in_features=1280, out_features=1280, bias=True)
                      (output): Linear(in_features=1280, out_features=1280, bias=True)
                      (attn): SelfAttention()
                    )
                    (attention_dropout): Dropout(p=0.0, inplace=False)
                    (intermediate): Linear(in_features=1280, out_features=5120, bias=True)
                    (output): Linear(in_features=5120, out_features=1280, bias=True)
                    (ffn_dropout): Dropout(p=0.0, inplace=False)
                    (layernorm_before): Fp32LayerNorm((1280,), eps=1e-12, elementwise_affine=True)
                    (layernorm_after): Fp32LayerNorm((1280,), eps=1e-12, elementwise_affine=True)
                  )
                )
              )
              (17): FullyShardedDataParallel(
                (_fsdp_wrapped_module): FlattenParamsWrapper(
                  (_fpw_module): FLAVATransformerLayer(
                    (attention): MultiHeadAttention(
                      (query): Linear(in_features=1280, out_features=1280, bias=True)
                      (key): Linear(in_features=1280, out_features=1280, bias=True)
                      (value): Linear(in_features=1280, out_features=1280, bias=True)
                      (output): Linear(in_features=1280, out_features=1280, bias=True)
                      (attn): SelfAttention()
                    )
                    (attention_dropout): Dropout(p=0.0, inplace=False)
                    (intermediate): Linear(in_features=1280, out_features=5120, bias=True)
                    (output): Linear(in_features=5120, out_features=1280, bias=True)
                    (ffn_dropout): Dropout(p=0.0, inplace=False)
                    (layernorm_before): Fp32LayerNorm((1280,), eps=1e-12, elementwise_affine=True)
                    (layernorm_after): Fp32LayerNorm((1280,), eps=1e-12, elementwise_affine=True)
                  )
                )
              )
              (18): FullyShardedDataParallel(
                (_fsdp_wrapped_module): FlattenParamsWrapper(
                  (_fpw_module): FLAVATransformerLayer(
                    (attention): MultiHeadAttention(
                      (query): Linear(in_features=1280, out_features=1280, bias=True)
                      (key): Linear(in_features=1280, out_features=1280, bias=True)
                      (value): Linear(in_features=1280, out_features=1280, bias=True)
                      (output): Linear(in_features=1280, out_features=1280, bias=True)
                      (attn): SelfAttention()
                    )
                    (attention_dropout): Dropout(p=0.0, inplace=False)
                    (intermediate): Linear(in_features=1280, out_features=5120, bias=True)
                    (output): Linear(in_features=5120, out_features=1280, bias=True)
                    (ffn_dropout): Dropout(p=0.0, inplace=False)
                    (layernorm_before): Fp32LayerNorm((1280,), eps=1e-12, elementwise_affine=True)
                    (layernorm_after): Fp32LayerNorm((1280,), eps=1e-12, elementwise_affine=True)
                  )
                )
              )
              (19): FullyShardedDataParallel(
                (_fsdp_wrapped_module): FlattenParamsWrapper(
                  (_fpw_module): FLAVATransformerLayer(
                    (attention): MultiHeadAttention(
                      (query): Linear(in_features=1280, out_features=1280, bias=True)
                      (key): Linear(in_features=1280, out_features=1280, bias=True)
                      (value): Linear(in_features=1280, out_features=1280, bias=True)
                      (output): Linear(in_features=1280, out_features=1280, bias=True)
                      (attn): SelfAttention()
                    )
                    (attention_dropout): Dropout(p=0.0, inplace=False)
                    (intermediate): Linear(in_features=1280, out_features=5120, bias=True)
                    (output): Linear(in_features=5120, out_features=1280, bias=True)
                    (ffn_dropout): Dropout(p=0.0, inplace=False)
                    (layernorm_before): Fp32LayerNorm((1280,), eps=1e-12, elementwise_affine=True)
                    (layernorm_after): Fp32LayerNorm((1280,), eps=1e-12, elementwise_affine=True)
                  )
                )
              )
              (20): FullyShardedDataParallel(
                (_fsdp_wrapped_module): FlattenParamsWrapper(
                  (_fpw_module): FLAVATransformerLayer(
                    (attention): MultiHeadAttention(
                      (query): Linear(in_features=1280, out_features=1280, bias=True)
                      (key): Linear(in_features=1280, out_features=1280, bias=True)
                      (value): Linear(in_features=1280, out_features=1280, bias=True)
                      (output): Linear(in_features=1280, out_features=1280, bias=True)
                      (attn): SelfAttention()
                    )
                    (attention_dropout): Dropout(p=0.0, inplace=False)
                    (intermediate): Linear(in_features=1280, out_features=5120, bias=True)
                    (output): Linear(in_features=5120, out_features=1280, bias=True)
                    (ffn_dropout): Dropout(p=0.0, inplace=False)
                    (layernorm_before): Fp32LayerNorm((1280,), eps=1e-12, elementwise_affine=True)
                    (layernorm_after): Fp32LayerNorm((1280,), eps=1e-12, elementwise_affine=True)
                  )
                )
              )
              (21): FullyShardedDataParallel(
                (_fsdp_wrapped_module): FlattenParamsWrapper(
                  (_fpw_module): FLAVATransformerLayer(
                    (attention): MultiHeadAttention(
                      (query): Linear(in_features=1280, out_features=1280, bias=True)
                      (key): Linear(in_features=1280, out_features=1280, bias=True)
                      (value): Linear(in_features=1280, out_features=1280, bias=True)
                      (output): Linear(in_features=1280, out_features=1280, bias=True)
                      (attn): SelfAttention()
                    )
                    (attention_dropout): Dropout(p=0.0, inplace=False)
                    (intermediate): Linear(in_features=1280, out_features=5120, bias=True)
                    (output): Linear(in_features=5120, out_features=1280, bias=True)
                    (ffn_dropout): Dropout(p=0.0, inplace=False)
                    (layernorm_before): Fp32LayerNorm((1280,), eps=1e-12, elementwise_affine=True)
                    (layernorm_after): Fp32LayerNorm((1280,), eps=1e-12, elementwise_affine=True)
                  )
                )
              )
              (22): FullyShardedDataParallel(
                (_fsdp_wrapped_module): FlattenParamsWrapper(
                  (_fpw_module): FLAVATransformerLayer(
                    (attention): MultiHeadAttention(
                      (query): Linear(in_features=1280, out_features=1280, bias=True)
                      (key): Linear(in_features=1280, out_features=1280, bias=True)
                      (value): Linear(in_features=1280, out_features=1280, bias=True)
                      (output): Linear(in_features=1280, out_features=1280, bias=True)
                      (attn): SelfAttention()
                    )
                    (attention_dropout): Dropout(p=0.0, inplace=False)
                    (intermediate): Linear(in_features=1280, out_features=5120, bias=True)
                    (output): Linear(in_features=5120, out_features=1280, bias=True)
                    (ffn_dropout): Dropout(p=0.0, inplace=False)
                    (layernorm_before): Fp32LayerNorm((1280,), eps=1e-12, elementwise_affine=True)
                    (layernorm_after): Fp32LayerNorm((1280,), eps=1e-12, elementwise_affine=True)
                  )
                )
              )
              (23): FullyShardedDataParallel(
                (_fsdp_wrapped_module): FlattenParamsWrapper(
                  (_fpw_module): FLAVATransformerLayer(
                    (attention): MultiHeadAttention(
                      (query): Linear(in_features=1280, out_features=1280, bias=True)
                      (key): Linear(in_features=1280, out_features=1280, bias=True)
                      (value): Linear(in_features=1280, out_features=1280, bias=True)
                      (output): Linear(in_features=1280, out_features=1280, bias=True)
                      (attn): SelfAttention()
                    )
                    (attention_dropout): Dropout(p=0.0, inplace=False)
                    (intermediate): Linear(in_features=1280, out_features=5120, bias=True)
                    (output): Linear(in_features=5120, out_features=1280, bias=True)
                    (ffn_dropout): Dropout(p=0.0, inplace=False)
                    (layernorm_before): Fp32LayerNorm((1280,), eps=1e-12, elementwise_affine=True)
                    (layernorm_after): Fp32LayerNorm((1280,), eps=1e-12, elementwise_affine=True)
                  )
                )
              )
              (24): FullyShardedDataParallel(
                (_fsdp_wrapped_module): FlattenParamsWrapper(
                  (_fpw_module): FLAVATransformerLayer(
                    (attention): MultiHeadAttention(
                      (query): Linear(in_features=1280, out_features=1280, bias=True)
                      (key): Linear(in_features=1280, out_features=1280, bias=True)
                      (value): Linear(in_features=1280, out_features=1280, bias=True)
                      (output): Linear(in_features=1280, out_features=1280, bias=True)
                      (attn): SelfAttention()
                    )
                    (attention_dropout): Dropout(p=0.0, inplace=False)
                    (intermediate): Linear(in_features=1280, out_features=5120, bias=True)
                    (output): Linear(in_features=5120, out_features=1280, bias=True)
                    (ffn_dropout): Dropout(p=0.0, inplace=False)
                    (layernorm_before): Fp32LayerNorm((1280,), eps=1e-12, elementwise_affine=True)
                    (layernorm_after): Fp32LayerNorm((1280,), eps=1e-12, elementwise_affine=True)
                  )
                )
              )
              (25): FullyShardedDataParallel(
                (_fsdp_wrapped_module): FlattenParamsWrapper(
                  (_fpw_module): FLAVATransformerLayer(
                    (attention): MultiHeadAttention(
                      (query): Linear(in_features=1280, out_features=1280, bias=True)
                      (key): Linear(in_features=1280, out_features=1280, bias=True)
                      (value): Linear(in_features=1280, out_features=1280, bias=True)
                      (output): Linear(in_features=1280, out_features=1280, bias=True)
                      (attn): SelfAttention()
                    )
                    (attention_dropout): Dropout(p=0.0, inplace=False)
                    (intermediate): Linear(in_features=1280, out_features=5120, bias=True)
                    (output): Linear(in_features=5120, out_features=1280, bias=True)
                    (ffn_dropout): Dropout(p=0.0, inplace=False)
                    (layernorm_before): Fp32LayerNorm((1280,), eps=1e-12, elementwise_affine=True)
                    (layernorm_after): Fp32LayerNorm((1280,), eps=1e-12, elementwise_affine=True)
                  )
                )
              )
              (26): FullyShardedDataParallel(
                (_fsdp_wrapped_module): FlattenParamsWrapper(
                  (_fpw_module): FLAVATransformerLayer(
                    (attention): MultiHeadAttention(
                      (query): Linear(in_features=1280, out_features=1280, bias=True)
                      (key): Linear(in_features=1280, out_features=1280, bias=True)
                      (value): Linear(in_features=1280, out_features=1280, bias=True)
                      (output): Linear(in_features=1280, out_features=1280, bias=True)
                      (attn): SelfAttention()
                    )
                    (attention_dropout): Dropout(p=0.0, inplace=False)
                    (intermediate): Linear(in_features=1280, out_features=5120, bias=True)
                    (output): Linear(in_features=5120, out_features=1280, bias=True)
                    (ffn_dropout): Dropout(p=0.0, inplace=False)
                    (layernorm_before): Fp32LayerNorm((1280,), eps=1e-12, elementwise_affine=True)
                    (layernorm_after): Fp32LayerNorm((1280,), eps=1e-12, elementwise_affine=True)
                  )
                )
              )
              (27): FullyShardedDataParallel(
                (_fsdp_wrapped_module): FlattenParamsWrapper(
                  (_fpw_module): FLAVATransformerLayer(
                    (attention): MultiHeadAttention(
                      (query): Linear(in_features=1280, out_features=1280, bias=True)
                      (key): Linear(in_features=1280, out_features=1280, bias=True)
                      (value): Linear(in_features=1280, out_features=1280, bias=True)
                      (output): Linear(in_features=1280, out_features=1280, bias=True)
                      (attn): SelfAttention()
                    )
                    (attention_dropout): Dropout(p=0.0, inplace=False)
                    (intermediate): Linear(in_features=1280, out_features=5120, bias=True)
                    (output): Linear(in_features=5120, out_features=1280, bias=True)
                    (ffn_dropout): Dropout(p=0.0, inplace=False)
                    (layernorm_before): Fp32LayerNorm((1280,), eps=1e-12, elementwise_affine=True)
                    (layernorm_after): Fp32LayerNorm((1280,), eps=1e-12, elementwise_affine=True)
                  )
                )
              )
              (28): FullyShardedDataParallel(
                (_fsdp_wrapped_module): FlattenParamsWrapper(
                  (_fpw_module): FLAVATransformerLayer(
                    (attention): MultiHeadAttention(
                      (query): Linear(in_features=1280, out_features=1280, bias=True)
                      (key): Linear(in_features=1280, out_features=1280, bias=True)
                      (value): Linear(in_features=1280, out_features=1280, bias=True)
                      (output): Linear(in_features=1280, out_features=1280, bias=True)
                      (attn): SelfAttention()
                    )
                    (attention_dropout): Dropout(p=0.0, inplace=False)
                    (intermediate): Linear(in_features=1280, out_features=5120, bias=True)
                    (output): Linear(in_features=5120, out_features=1280, bias=True)
                    (ffn_dropout): Dropout(p=0.0, inplace=False)
                    (layernorm_before): Fp32LayerNorm((1280,), eps=1e-12, elementwise_affine=True)
                    (layernorm_after): Fp32LayerNorm((1280,), eps=1e-12, elementwise_affine=True)
                  )
                )
              )
              (29): FullyShardedDataParallel(
                (_fsdp_wrapped_module): FlattenParamsWrapper(
                  (_fpw_module): FLAVATransformerLayer(
                    (attention): MultiHeadAttention(
                      (query): Linear(in_features=1280, out_features=1280, bias=True)
                      (key): Linear(in_features=1280, out_features=1280, bias=True)
                      (value): Linear(in_features=1280, out_features=1280, bias=True)
                      (output): Linear(in_features=1280, out_features=1280, bias=True)
                      (attn): SelfAttention()
                    )
                    (attention_dropout): Dropout(p=0.0, inplace=False)
                    (intermediate): Linear(in_features=1280, out_features=5120, bias=True)
                    (output): Linear(in_features=5120, out_features=1280, bias=True)
                    (ffn_dropout): Dropout(p=0.0, inplace=False)
                    (layernorm_before): Fp32LayerNorm((1280,), eps=1e-12, elementwise_affine=True)
                    (layernorm_after): Fp32LayerNorm((1280,), eps=1e-12, elementwise_affine=True)
                  )
                )
              )
              (30): FullyShardedDataParallel(
                (_fsdp_wrapped_module): FlattenParamsWrapper(
                  (_fpw_module): FLAVATransformerLayer(
                    (attention): MultiHeadAttention(
                      (query): Linear(in_features=1280, out_features=1280, bias=True)
                      (key): Linear(in_features=1280, out_features=1280, bias=True)
                      (value): Linear(in_features=1280, out_features=1280, bias=True)
                      (output): Linear(in_features=1280, out_features=1280, bias=True)
                      (attn): SelfAttention()
                    )
                    (attention_dropout): Dropout(p=0.0, inplace=False)
                    (intermediate): Linear(in_features=1280, out_features=5120, bias=True)
                    (output): Linear(in_features=5120, out_features=1280, bias=True)
                    (ffn_dropout): Dropout(p=0.0, inplace=False)
                    (layernorm_before): Fp32LayerNorm((1280,), eps=1e-12, elementwise_affine=True)
                    (layernorm_after): Fp32LayerNorm((1280,), eps=1e-12, elementwise_affine=True)
                  )
                )
              )
              (31): FullyShardedDataParallel(
                (_fsdp_wrapped_module): FlattenParamsWrapper(
                  (_fpw_module): FLAVATransformerLayer(
                    (attention): MultiHeadAttention(
                      (query): Linear(in_features=1280, out_features=1280, bias=True)
                      (key): Linear(in_features=1280, out_features=1280, bias=True)
                      (value): Linear(in_features=1280, out_features=1280, bias=True)
                      (output): Linear(in_features=1280, out_features=1280, bias=True)
                      (attn): SelfAttention()
                    )
                    (attention_dropout): Dropout(p=0.0, inplace=False)
                    (intermediate): Linear(in_features=1280, out_features=5120, bias=True)
                    (output): Linear(in_features=5120, out_features=1280, bias=True)
                    (ffn_dropout): Dropout(p=0.0, inplace=False)
                    (layernorm_before): Fp32LayerNorm((1280,), eps=1e-12, elementwise_affine=True)
                    (layernorm_after): Fp32LayerNorm((1280,), eps=1e-12, elementwise_affine=True)
                  )
                )
              )
            )
          )
          (layernorm): Fp32LayerNorm((1280,), eps=1e-12, elementwise_affine=True)
          (pooler): Pooler(
            (dense): Linear(in_features=1280, out_features=1280, bias=True)
            (activation): Tanh()
          )
        )
        (mm_encoder): FLAVATransformerWithoutEmbeddings(
          (encoder): FLAVATransformerEncoder(
            (layer): ModuleList(
              (0): FullyShardedDataParallel(
                (_fsdp_wrapped_module): FlattenParamsWrapper(
                  (_fpw_module): FLAVATransformerLayer(
                    (attention): MultiHeadAttention(
                      (query): Linear(in_features=1280, out_features=1280, bias=True)
                      (key): Linear(in_features=1280, out_features=1280, bias=True)
                      (value): Linear(in_features=1280, out_features=1280, bias=True)
                      (output): Linear(in_features=1280, out_features=1280, bias=True)
                      (attn): SelfAttention()
                    )
                    (attention_dropout): Dropout(p=0.0, inplace=False)
                    (intermediate): Linear(in_features=1280, out_features=5120, bias=True)
                    (output): Linear(in_features=5120, out_features=1280, bias=True)
                    (ffn_dropout): Dropout(p=0.0, inplace=False)
                    (layernorm_before): Fp32LayerNorm((1280,), eps=1e-12, elementwise_affine=True)
                    (layernorm_after): Fp32LayerNorm((1280,), eps=1e-12, elementwise_affine=True)
                  )
                )
              )
              (1): FullyShardedDataParallel(
                (_fsdp_wrapped_module): FlattenParamsWrapper(
                  (_fpw_module): FLAVATransformerLayer(
                    (attention): MultiHeadAttention(
                      (query): Linear(in_features=1280, out_features=1280, bias=True)
                      (key): Linear(in_features=1280, out_features=1280, bias=True)
                      (value): Linear(in_features=1280, out_features=1280, bias=True)
                      (output): Linear(in_features=1280, out_features=1280, bias=True)
                      (attn): SelfAttention()
                    )
                    (attention_dropout): Dropout(p=0.0, inplace=False)
                    (intermediate): Linear(in_features=1280, out_features=5120, bias=True)
                    (output): Linear(in_features=5120, out_features=1280, bias=True)
                    (ffn_dropout): Dropout(p=0.0, inplace=False)
                    (layernorm_before): Fp32LayerNorm((1280,), eps=1e-12, elementwise_affine=True)
                    (layernorm_after): Fp32LayerNorm((1280,), eps=1e-12, elementwise_affine=True)
                  )
                )
              )
              (2): FullyShardedDataParallel(
                (_fsdp_wrapped_module): FlattenParamsWrapper(
                  (_fpw_module): FLAVATransformerLayer(
                    (attention): MultiHeadAttention(
                      (query): Linear(in_features=1280, out_features=1280, bias=True)
                      (key): Linear(in_features=1280, out_features=1280, bias=True)
                      (value): Linear(in_features=1280, out_features=1280, bias=True)
                      (output): Linear(in_features=1280, out_features=1280, bias=True)
                      (attn): SelfAttention()
                    )
                    (attention_dropout): Dropout(p=0.0, inplace=False)
                    (intermediate): Linear(in_features=1280, out_features=5120, bias=True)
                    (output): Linear(in_features=5120, out_features=1280, bias=True)
                    (ffn_dropout): Dropout(p=0.0, inplace=False)
                    (layernorm_before): Fp32LayerNorm((1280,), eps=1e-12, elementwise_affine=True)
                    (layernorm_after): Fp32LayerNorm((1280,), eps=1e-12, elementwise_affine=True)
                  )
                )
              )
              (3): FullyShardedDataParallel(
                (_fsdp_wrapped_module): FlattenParamsWrapper(
                  (_fpw_module): FLAVATransformerLayer(
                    (attention): MultiHeadAttention(
                      (query): Linear(in_features=1280, out_features=1280, bias=True)
                      (key): Linear(in_features=1280, out_features=1280, bias=True)
                      (value): Linear(in_features=1280, out_features=1280, bias=True)
                      (output): Linear(in_features=1280, out_features=1280, bias=True)
                      (attn): SelfAttention()
                    )
                    (attention_dropout): Dropout(p=0.0, inplace=False)
                    (intermediate): Linear(in_features=1280, out_features=5120, bias=True)
                    (output): Linear(in_features=5120, out_features=1280, bias=True)
                    (ffn_dropout): Dropout(p=0.0, inplace=False)
                    (layernorm_before): Fp32LayerNorm((1280,), eps=1e-12, elementwise_affine=True)
                    (layernorm_after): Fp32LayerNorm((1280,), eps=1e-12, elementwise_affine=True)
                  )
                )
              )
              (4): FullyShardedDataParallel(
                (_fsdp_wrapped_module): FlattenParamsWrapper(
                  (_fpw_module): FLAVATransformerLayer(
                    (attention): MultiHeadAttention(
                      (query): Linear(in_features=1280, out_features=1280, bias=True)
                      (key): Linear(in_features=1280, out_features=1280, bias=True)
                      (value): Linear(in_features=1280, out_features=1280, bias=True)
                      (output): Linear(in_features=1280, out_features=1280, bias=True)
                      (attn): SelfAttention()
                    )
                    (attention_dropout): Dropout(p=0.0, inplace=False)
                    (intermediate): Linear(in_features=1280, out_features=5120, bias=True)
                    (output): Linear(in_features=5120, out_features=1280, bias=True)
                    (ffn_dropout): Dropout(p=0.0, inplace=False)
                    (layernorm_before): Fp32LayerNorm((1280,), eps=1e-12, elementwise_affine=True)
                    (layernorm_after): Fp32LayerNorm((1280,), eps=1e-12, elementwise_affine=True)
                  )
                )
              )
              (5): FullyShardedDataParallel(
                (_fsdp_wrapped_module): FlattenParamsWrapper(
                  (_fpw_module): FLAVATransformerLayer(
                    (attention): MultiHeadAttention(
                      (query): Linear(in_features=1280, out_features=1280, bias=True)
                      (key): Linear(in_features=1280, out_features=1280, bias=True)
                      (value): Linear(in_features=1280, out_features=1280, bias=True)
                      (output): Linear(in_features=1280, out_features=1280, bias=True)
                      (attn): SelfAttention()
                    )
                    (attention_dropout): Dropout(p=0.0, inplace=False)
                    (intermediate): Linear(in_features=1280, out_features=5120, bias=True)
                    (output): Linear(in_features=5120, out_features=1280, bias=True)
                    (ffn_dropout): Dropout(p=0.0, inplace=False)
                    (layernorm_before): Fp32LayerNorm((1280,), eps=1e-12, elementwise_affine=True)
                    (layernorm_after): Fp32LayerNorm((1280,), eps=1e-12, elementwise_affine=True)
                  )
                )
              )
              (6): FullyShardedDataParallel(
                (_fsdp_wrapped_module): FlattenParamsWrapper(
                  (_fpw_module): FLAVATransformerLayer(
                    (attention): MultiHeadAttention(
                      (query): Linear(in_features=1280, out_features=1280, bias=True)
                      (key): Linear(in_features=1280, out_features=1280, bias=True)
                      (value): Linear(in_features=1280, out_features=1280, bias=True)
                      (output): Linear(in_features=1280, out_features=1280, bias=True)
                      (attn): SelfAttention()
                    )
                    (attention_dropout): Dropout(p=0.0, inplace=False)
                    (intermediate): Linear(in_features=1280, out_features=5120, bias=True)
                    (output): Linear(in_features=5120, out_features=1280, bias=True)
                    (ffn_dropout): Dropout(p=0.0, inplace=False)
                    (layernorm_before): Fp32LayerNorm((1280,), eps=1e-12, elementwise_affine=True)
                    (layernorm_after): Fp32LayerNorm((1280,), eps=1e-12, elementwise_affine=True)
                  )
                )
              )
              (7): FullyShardedDataParallel(
                (_fsdp_wrapped_module): FlattenParamsWrapper(
                  (_fpw_module): FLAVATransformerLayer(
                    (attention): MultiHeadAttention(
                      (query): Linear(in_features=1280, out_features=1280, bias=True)
                      (key): Linear(in_features=1280, out_features=1280, bias=True)
                      (value): Linear(in_features=1280, out_features=1280, bias=True)
                      (output): Linear(in_features=1280, out_features=1280, bias=True)
                      (attn): SelfAttention()
                    )
                    (attention_dropout): Dropout(p=0.0, inplace=False)
                    (intermediate): Linear(in_features=1280, out_features=5120, bias=True)
                    (output): Linear(in_features=5120, out_features=1280, bias=True)
                    (ffn_dropout): Dropout(p=0.0, inplace=False)
                    (layernorm_before): Fp32LayerNorm((1280,), eps=1e-12, elementwise_affine=True)
                    (layernorm_after): Fp32LayerNorm((1280,), eps=1e-12, elementwise_affine=True)
                  )
                )
              )
              (8): FullyShardedDataParallel(
                (_fsdp_wrapped_module): FlattenParamsWrapper(
                  (_fpw_module): FLAVATransformerLayer(
                    (attention): MultiHeadAttention(
                      (query): Linear(in_features=1280, out_features=1280, bias=True)
                      (key): Linear(in_features=1280, out_features=1280, bias=True)
                      (value): Linear(in_features=1280, out_features=1280, bias=True)
                      (output): Linear(in_features=1280, out_features=1280, bias=True)
                      (attn): SelfAttention()
                    )
                    (attention_dropout): Dropout(p=0.0, inplace=False)
                    (intermediate): Linear(in_features=1280, out_features=5120, bias=True)
                    (output): Linear(in_features=5120, out_features=1280, bias=True)
                    (ffn_dropout): Dropout(p=0.0, inplace=False)
                    (layernorm_before): Fp32LayerNorm((1280,), eps=1e-12, elementwise_affine=True)
                    (layernorm_after): Fp32LayerNorm((1280,), eps=1e-12, elementwise_affine=True)
                  )
                )
              )
              (9): FullyShardedDataParallel(
                (_fsdp_wrapped_module): FlattenParamsWrapper(
                  (_fpw_module): FLAVATransformerLayer(
                    (attention): MultiHeadAttention(
                      (query): Linear(in_features=1280, out_features=1280, bias=True)
                      (key): Linear(in_features=1280, out_features=1280, bias=True)
                      (value): Linear(in_features=1280, out_features=1280, bias=True)
                      (output): Linear(in_features=1280, out_features=1280, bias=True)
                      (attn): SelfAttention()
                    )
                    (attention_dropout): Dropout(p=0.0, inplace=False)
                    (intermediate): Linear(in_features=1280, out_features=5120, bias=True)
                    (output): Linear(in_features=5120, out_features=1280, bias=True)
                    (ffn_dropout): Dropout(p=0.0, inplace=False)
                    (layernorm_before): Fp32LayerNorm((1280,), eps=1e-12, elementwise_affine=True)
                    (layernorm_after): Fp32LayerNorm((1280,), eps=1e-12, elementwise_affine=True)
                  )
                )
              )
              (10): FullyShardedDataParallel(
                (_fsdp_wrapped_module): FlattenParamsWrapper(
                  (_fpw_module): FLAVATransformerLayer(
                    (attention): MultiHeadAttention(
                      (query): Linear(in_features=1280, out_features=1280, bias=True)
                      (key): Linear(in_features=1280, out_features=1280, bias=True)
                      (value): Linear(in_features=1280, out_features=1280, bias=True)
                      (output): Linear(in_features=1280, out_features=1280, bias=True)
                      (attn): SelfAttention()
                    )
                    (attention_dropout): Dropout(p=0.0, inplace=False)
                    (intermediate): Linear(in_features=1280, out_features=5120, bias=True)
                    (output): Linear(in_features=5120, out_features=1280, bias=True)
                    (ffn_dropout): Dropout(p=0.0, inplace=False)
                    (layernorm_before): Fp32LayerNorm((1280,), eps=1e-12, elementwise_affine=True)
                    (layernorm_after): Fp32LayerNorm((1280,), eps=1e-12, elementwise_affine=True)
                  )
                )
              )
              (11): FullyShardedDataParallel(
                (_fsdp_wrapped_module): FlattenParamsWrapper(
                  (_fpw_module): FLAVATransformerLayer(
                    (attention): MultiHeadAttention(
                      (query): Linear(in_features=1280, out_features=1280, bias=True)
                      (key): Linear(in_features=1280, out_features=1280, bias=True)
                      (value): Linear(in_features=1280, out_features=1280, bias=True)
                      (output): Linear(in_features=1280, out_features=1280, bias=True)
                      (attn): SelfAttention()
                    )
                    (attention_dropout): Dropout(p=0.0, inplace=False)
                    (intermediate): Linear(in_features=1280, out_features=5120, bias=True)
                    (output): Linear(in_features=5120, out_features=1280, bias=True)
                    (ffn_dropout): Dropout(p=0.0, inplace=False)
                    (layernorm_before): Fp32LayerNorm((1280,), eps=1e-12, elementwise_affine=True)
                    (layernorm_after): Fp32LayerNorm((1280,), eps=1e-12, elementwise_affine=True)
                  )
                )
              )
              (12): FullyShardedDataParallel(
                (_fsdp_wrapped_module): FlattenParamsWrapper(
                  (_fpw_module): FLAVATransformerLayer(
                    (attention): MultiHeadAttention(
                      (query): Linear(in_features=1280, out_features=1280, bias=True)
                      (key): Linear(in_features=1280, out_features=1280, bias=True)
                      (value): Linear(in_features=1280, out_features=1280, bias=True)
                      (output): Linear(in_features=1280, out_features=1280, bias=True)
                      (attn): SelfAttention()
                    )
                    (attention_dropout): Dropout(p=0.0, inplace=False)
                    (intermediate): Linear(in_features=1280, out_features=5120, bias=True)
                    (output): Linear(in_features=5120, out_features=1280, bias=True)
                    (ffn_dropout): Dropout(p=0.0, inplace=False)
                    (layernorm_before): Fp32LayerNorm((1280,), eps=1e-12, elementwise_affine=True)
                    (layernorm_after): Fp32LayerNorm((1280,), eps=1e-12, elementwise_affine=True)
                  )
                )
              )
              (13): FullyShardedDataParallel(
                (_fsdp_wrapped_module): FlattenParamsWrapper(
                  (_fpw_module): FLAVATransformerLayer(
                    (attention): MultiHeadAttention(
                      (query): Linear(in_features=1280, out_features=1280, bias=True)
                      (key): Linear(in_features=1280, out_features=1280, bias=True)
                      (value): Linear(in_features=1280, out_features=1280, bias=True)
                      (output): Linear(in_features=1280, out_features=1280, bias=True)
                      (attn): SelfAttention()
                    )
                    (attention_dropout): Dropout(p=0.0, inplace=False)
                    (intermediate): Linear(in_features=1280, out_features=5120, bias=True)
                    (output): Linear(in_features=5120, out_features=1280, bias=True)
                    (ffn_dropout): Dropout(p=0.0, inplace=False)
                    (layernorm_before): Fp32LayerNorm((1280,), eps=1e-12, elementwise_affine=True)
                    (layernorm_after): Fp32LayerNorm((1280,), eps=1e-12, elementwise_affine=True)
                  )
                )
              )
              (14): FullyShardedDataParallel(
                (_fsdp_wrapped_module): FlattenParamsWrapper(
                  (_fpw_module): FLAVATransformerLayer(
                    (attention): MultiHeadAttention(
                      (query): Linear(in_features=1280, out_features=1280, bias=True)
                      (key): Linear(in_features=1280, out_features=1280, bias=True)
                      (value): Linear(in_features=1280, out_features=1280, bias=True)
                      (output): Linear(in_features=1280, out_features=1280, bias=True)
                      (attn): SelfAttention()
                    )
                    (attention_dropout): Dropout(p=0.0, inplace=False)
                    (intermediate): Linear(in_features=1280, out_features=5120, bias=True)
                    (output): Linear(in_features=5120, out_features=1280, bias=True)
                    (ffn_dropout): Dropout(p=0.0, inplace=False)
                    (layernorm_before): Fp32LayerNorm((1280,), eps=1e-12, elementwise_affine=True)
                    (layernorm_after): Fp32LayerNorm((1280,), eps=1e-12, elementwise_affine=True)
                  )
                )
              )
              (15): FullyShardedDataParallel(
                (_fsdp_wrapped_module): FlattenParamsWrapper(
                  (_fpw_module): FLAVATransformerLayer(
                    (attention): MultiHeadAttention(
                      (query): Linear(in_features=1280, out_features=1280, bias=True)
                      (key): Linear(in_features=1280, out_features=1280, bias=True)
                      (value): Linear(in_features=1280, out_features=1280, bias=True)
                      (output): Linear(in_features=1280, out_features=1280, bias=True)
                      (attn): SelfAttention()
                    )
                    (attention_dropout): Dropout(p=0.0, inplace=False)
                    (intermediate): Linear(in_features=1280, out_features=5120, bias=True)
                    (output): Linear(in_features=5120, out_features=1280, bias=True)
                    (ffn_dropout): Dropout(p=0.0, inplace=False)
                    (layernorm_before): Fp32LayerNorm((1280,), eps=1e-12, elementwise_affine=True)
                    (layernorm_after): Fp32LayerNorm((1280,), eps=1e-12, elementwise_affine=True)
                  )
                )
              )
              (16): FullyShardedDataParallel(
                (_fsdp_wrapped_module): FlattenParamsWrapper(
                  (_fpw_module): FLAVATransformerLayer(
                    (attention): MultiHeadAttention(
                      (query): Linear(in_features=1280, out_features=1280, bias=True)
                      (key): Linear(in_features=1280, out_features=1280, bias=True)
                      (value): Linear(in_features=1280, out_features=1280, bias=True)
                      (output): Linear(in_features=1280, out_features=1280, bias=True)
                      (attn): SelfAttention()
                    )
                    (attention_dropout): Dropout(p=0.0, inplace=False)
                    (intermediate): Linear(in_features=1280, out_features=5120, bias=True)
                    (output): Linear(in_features=5120, out_features=1280, bias=True)
                    (ffn_dropout): Dropout(p=0.0, inplace=False)
                    (layernorm_before): Fp32LayerNorm((1280,), eps=1e-12, elementwise_affine=True)
                    (layernorm_after): Fp32LayerNorm((1280,), eps=1e-12, elementwise_affine=True)
                  )
                )
              )
              (17): FullyShardedDataParallel(
                (_fsdp_wrapped_module): FlattenParamsWrapper(
                  (_fpw_module): FLAVATransformerLayer(
                    (attention): MultiHeadAttention(
                      (query): Linear(in_features=1280, out_features=1280, bias=True)
                      (key): Linear(in_features=1280, out_features=1280, bias=True)
                      (value): Linear(in_features=1280, out_features=1280, bias=True)
                      (output): Linear(in_features=1280, out_features=1280, bias=True)
                      (attn): SelfAttention()
                    )
                    (attention_dropout): Dropout(p=0.0, inplace=False)
                    (intermediate): Linear(in_features=1280, out_features=5120, bias=True)
                    (output): Linear(in_features=5120, out_features=1280, bias=True)
                    (ffn_dropout): Dropout(p=0.0, inplace=False)
                    (layernorm_before): Fp32LayerNorm((1280,), eps=1e-12, elementwise_affine=True)
                    (layernorm_after): Fp32LayerNorm((1280,), eps=1e-12, elementwise_affine=True)
                  )
                )
              )
              (18): FullyShardedDataParallel(
                (_fsdp_wrapped_module): FlattenParamsWrapper(
                  (_fpw_module): FLAVATransformerLayer(
                    (attention): MultiHeadAttention(
                      (query): Linear(in_features=1280, out_features=1280, bias=True)
                      (key): Linear(in_features=1280, out_features=1280, bias=True)
                      (value): Linear(in_features=1280, out_features=1280, bias=True)
                      (output): Linear(in_features=1280, out_features=1280, bias=True)
                      (attn): SelfAttention()
                    )
                    (attention_dropout): Dropout(p=0.0, inplace=False)
                    (intermediate): Linear(in_features=1280, out_features=5120, bias=True)
                    (output): Linear(in_features=5120, out_features=1280, bias=True)
                    (ffn_dropout): Dropout(p=0.0, inplace=False)
                    (layernorm_before): Fp32LayerNorm((1280,), eps=1e-12, elementwise_affine=True)
                    (layernorm_after): Fp32LayerNorm((1280,), eps=1e-12, elementwise_affine=True)
                  )
                )
              )
              (19): FullyShardedDataParallel(
                (_fsdp_wrapped_module): FlattenParamsWrapper(
                  (_fpw_module): FLAVATransformerLayer(
                    (attention): MultiHeadAttention(
                      (query): Linear(in_features=1280, out_features=1280, bias=True)
                      (key): Linear(in_features=1280, out_features=1280, bias=True)
                      (value): Linear(in_features=1280, out_features=1280, bias=True)
                      (output): Linear(in_features=1280, out_features=1280, bias=True)
                      (attn): SelfAttention()
                    )
                    (attention_dropout): Dropout(p=0.0, inplace=False)
                    (intermediate): Linear(in_features=1280, out_features=5120, bias=True)
                    (output): Linear(in_features=5120, out_features=1280, bias=True)
                    (ffn_dropout): Dropout(p=0.0, inplace=False)
                    (layernorm_before): Fp32LayerNorm((1280,), eps=1e-12, elementwise_affine=True)
                    (layernorm_after): Fp32LayerNorm((1280,), eps=1e-12, elementwise_affine=True)
                  )
                )
              )
              (20): FullyShardedDataParallel(
                (_fsdp_wrapped_module): FlattenParamsWrapper(
                  (_fpw_module): FLAVATransformerLayer(
                    (attention): MultiHeadAttention(
                      (query): Linear(in_features=1280, out_features=1280, bias=True)
                      (key): Linear(in_features=1280, out_features=1280, bias=True)
                      (value): Linear(in_features=1280, out_features=1280, bias=True)
                      (output): Linear(in_features=1280, out_features=1280, bias=True)
                      (attn): SelfAttention()
                    )
                    (attention_dropout): Dropout(p=0.0, inplace=False)
                    (intermediate): Linear(in_features=1280, out_features=5120, bias=True)
                    (output): Linear(in_features=5120, out_features=1280, bias=True)
                    (ffn_dropout): Dropout(p=0.0, inplace=False)
                    (layernorm_before): Fp32LayerNorm((1280,), eps=1e-12, elementwise_affine=True)
                    (layernorm_after): Fp32LayerNorm((1280,), eps=1e-12, elementwise_affine=True)
                  )
                )
              )
              (21): FullyShardedDataParallel(
                (_fsdp_wrapped_module): FlattenParamsWrapper(
                  (_fpw_module): FLAVATransformerLayer(
                    (attention): MultiHeadAttention(
                      (query): Linear(in_features=1280, out_features=1280, bias=True)
                      (key): Linear(in_features=1280, out_features=1280, bias=True)
                      (value): Linear(in_features=1280, out_features=1280, bias=True)
                      (output): Linear(in_features=1280, out_features=1280, bias=True)
                      (attn): SelfAttention()
                    )
                    (attention_dropout): Dropout(p=0.0, inplace=False)
                    (intermediate): Linear(in_features=1280, out_features=5120, bias=True)
                    (output): Linear(in_features=5120, out_features=1280, bias=True)
                    (ffn_dropout): Dropout(p=0.0, inplace=False)
                    (layernorm_before): Fp32LayerNorm((1280,), eps=1e-12, elementwise_affine=True)
                    (layernorm_after): Fp32LayerNorm((1280,), eps=1e-12, elementwise_affine=True)
                  )
                )
              )
              (22): FullyShardedDataParallel(
                (_fsdp_wrapped_module): FlattenParamsWrapper(
                  (_fpw_module): FLAVATransformerLayer(
                    (attention): MultiHeadAttention(
                      (query): Linear(in_features=1280, out_features=1280, bias=True)
                      (key): Linear(in_features=1280, out_features=1280, bias=True)
                      (value): Linear(in_features=1280, out_features=1280, bias=True)
                      (output): Linear(in_features=1280, out_features=1280, bias=True)
                      (attn): SelfAttention()
                    )
                    (attention_dropout): Dropout(p=0.0, inplace=False)
                    (intermediate): Linear(in_features=1280, out_features=5120, bias=True)
                    (output): Linear(in_features=5120, out_features=1280, bias=True)
                    (ffn_dropout): Dropout(p=0.0, inplace=False)
                    (layernorm_before): Fp32LayerNorm((1280,), eps=1e-12, elementwise_affine=True)
                    (layernorm_after): Fp32LayerNorm((1280,), eps=1e-12, elementwise_affine=True)
                  )
                )
              )
              (23): FullyShardedDataParallel(
                (_fsdp_wrapped_module): FlattenParamsWrapper(
                  (_fpw_module): FLAVATransformerLayer(
                    (attention): MultiHeadAttention(
                      (query): Linear(in_features=1280, out_features=1280, bias=True)
                      (key): Linear(in_features=1280, out_features=1280, bias=True)
                      (value): Linear(in_features=1280, out_features=1280, bias=True)
                      (output): Linear(in_features=1280, out_features=1280, bias=True)
                      (attn): SelfAttention()
                    )
                    (attention_dropout): Dropout(p=0.0, inplace=False)
                    (intermediate): Linear(in_features=1280, out_features=5120, bias=True)
                    (output): Linear(in_features=5120, out_features=1280, bias=True)
                    (ffn_dropout): Dropout(p=0.0, inplace=False)
                    (layernorm_before): Fp32LayerNorm((1280,), eps=1e-12, elementwise_affine=True)
                    (layernorm_after): Fp32LayerNorm((1280,), eps=1e-12, elementwise_affine=True)
                  )
                )
              )
            )
          )
          (layernorm): Fp32LayerNorm((1280,), eps=1e-12, elementwise_affine=True)
          (pooler): Pooler(
            (dense): Linear(in_features=1280, out_features=1280, bias=True)
            (activation): Tanh()
          )
        )
        (image_to_mm_projection): Linear(in_features=1280, out_features=1280, bias=True)
        (text_to_mm_projection): Linear(in_features=1280, out_features=1280, bias=True)
      )
      (image_codebook): DalleVAEEncoder(
        (encoder): DalleEncoder(
          (blocks): Sequential(
            (input): DalleConv2d()
            (group_1): Sequential(
              (block_1): DalleEncoderBlock(
                (id_path): Identity()
                (res_path): Sequential(
                  (relu_1): ReLU()
                  (conv_1): DalleConv2d()
…
                  (relu_1): ReLU()
                  (conv_1): DalleConv2d()
                  (relu_2): ReLU()
                  (conv_2): DalleConv2d()
                  (relu_3): ReLU()
                  (conv_3): DalleConv2d()
                  (relu_4): ReLU()
                  (conv_4): DalleConv2d()
                )
              )
            )
            (output): Sequential(
              (relu): ReLU()
              (conv): DalleConv2d()
            )
          )
        )
      )
      (loss): FLAVAPretrainingLoss(
        (contrastive_loss): FLAVAGlobalContrastiveLoss(
          (image_projection): Linear(in_features=768, out_features=768, bias=True)
          (text_projection): Linear(in_features=768, out_features=768, bias=True)
        )
        (mlm_loss): MaskedPredictionLoss(
          (cls): MaskedPredictionHead(
            (dense): Linear(in_features=768, out_features=768, bias=True)
            (layer_norm): Fp32LayerNorm((768,), eps=1e-05, elementwise_affine=True)
            (decoder): Linear(in_features=768, out_features=30522, bias=True)
          )
          (ce_loss): CrossEntropyLoss()
        )
        (mim_loss): MaskedPredictionLoss(
          (cls): MaskedPredictionHead(
            (dense): Linear(in_features=768, out_features=768, bias=True)
            (layer_norm): Fp32LayerNorm((768,), eps=1e-05, elementwise_affine=True)
            (decoder): Linear(in_features=768, out_features=8192, bias=True)
          )
          (ce_loss): CrossEntropyLoss()
        )
        (mmm_loss): ModuleDict(
          (mlm): MaskedPredictionLoss(
            (cls): MaskedPredictionHead(
              (dense): Linear(in_features=768, out_features=768, bias=True)
              (layer_norm): Fp32LayerNorm((768,), eps=1e-05, elementwise_affine=True)
              (decoder): Linear(in_features=768, out_features=30522, bias=True)
            )
            (ce_loss): CrossEntropyLoss()
          )
          (mim): MaskedPredictionLoss(
            (cls): MaskedPredictionHead(
              (dense): Linear(in_features=768, out_features=768, bias=True)
              (layer_norm): Fp32LayerNorm((768,), eps=1e-05, elementwise_affine=True)
              (decoder): Linear(in_features=768, out_features=8192, bias=True)
            )
            (ce_loss): CrossEntropyLoss()
          )
        )
        (itm_loss): ITMLoss(
          (pooler): Pooler(
            (dense): Linear(in_features=768, out_features=768, bias=True)
            (activation): Tanh()
          )
          (cls): TwoWayHead(
            (seq_relationship): Linear(in_features=768, out_features=2, bias=True)
          )
          (ce_loss): CrossEntropyLoss()
        )
      )
    )
  )
)
/fsx/users/rvarm1/conda/envs/tmm/lib/python3.7/site-packages/pytorch_lightning/callbacks/model_checkpoint.py:616: UserWarning: Checkpoint directory /fsx/users/rvarm1/rvarm1/repos/multimodal/examples exists and is not empty.
  rank_zero_warn(f"Checkpoint directory {dirpath} exists and is not empty.")
…
